…
870.48it/s]Load IMDB File:  87%|████████▋ | 1743/2007 [00:01<00:00, 952.61it/s]Load IMDB File:  92%|█████████▏| 1839/2007 [00:02<00:00, 914.91it/s]Load IMDB File:  96%|█████████▋| 1932/2007 [00:02<00:00, 908.31it/s]Load IMDB File: 100%|██████████| 2007/2007 [00:02<00:00, 908.55it/s]
/data2/npl/ViInfographicCaps/workspace/baseline/LSTMR/utils/trainer.py:117: UserWarning: optimizer attributes has no params defined, defaulting to {}.
  warnings.warn(
2025-08-13 00:22 - INFO - === Model ===
2025-08-13 00:22 - INFO - LSTMR(
  (ocr_embedding): OCREmbedding(
    (l2norm): L2Norm()
    (layer_norm): LayerNorm((768,), eps=1e-05, elementwise_affine=True)
    (activation): ReLU()
    (projection_feat): Linear(in_features=1160, out_features=768, bias=True)
    (projection_bbox): Linear(in_features=8, out_features=768, bias=True)
  )
  (obj_embedding): ObjEmbedding(
    (l2norm): L2Norm()
    (layer_norm): LayerNorm((768,), eps=1e-05, elementwise_affine=True)
    (activation): ReLU()
    (projection): Linear(in_features=1024, out_features=768, bias=True)
  )
  (geo_relationship): GeoRelationship(
    (hw_relation): HeightWidthRelation()
    (dis_relation): DistanceRelation()
    (iou_relation): IoURelation()
    (angle_relation): AngleRelation()
    (linear): Linear(in_features=11, out_features=768, bias=True)
    (activation): ReLU()
    (layer_norm): LayerNorm((768,), eps=1e-05, elementwise_affine=True)
  )
  (word_embedding): WordEmbedding(
    (model): RobertaModel(
      (embeddings): RobertaEmbeddings(
        (word_embeddings): Embedding(64001, 768, padding_idx=1)
        (position_embeddings): Embedding(258, 768, padding_idx=1)
        (token_type_embeddings): Embedding(1, 768)
        (LayerNorm): LayerNorm((768,), eps=1e-05, elementwise_affine=True)
        (dropout): Dropout(p=0.1, inplace=False)
      )
      (encoder): RobertaEncoder(
        (layer): ModuleList(
          (0-11): 12 x RobertaLayer(
            (attention): RobertaAttention(
              (self): RobertaSdpaSelfAttention(
                (query): Linear(in_features=768, out_features=768, bias=True)
                (key): Linear(in_features=768, out_features=768, bias=True)
                (value): Linear(in_features=768, out_features=768, bias=True)
                (dropout): Dropout(p=0.1, inplace=False)
              )
              (output): RobertaSelfOutput(
                (dense): Linear(in_features=768, out_features=768, bias=True)
                (LayerNorm): LayerNorm((768,), eps=1e-05, elementwise_affine=True)
                (dropout): Dropout(p=0.1, inplace=False)
              )
            )
            (intermediate): RobertaIntermediate(
              (dense): Linear(in_features=768, out_features=3072, bias=True)
              (intermediate_act_fn): GELUActivation()
            )
            (output): RobertaOutput(
              (dense): Linear(in_features=3072, out_features=768, bias=True)
              (LayerNorm): LayerNorm((768,), eps=1e-05, elementwise_affine=True)
              (dropout): Dropout(p=0.1, inplace=False)
            )
          )
        )
      )
      (pooler): RobertaPooler(
        (dense): Linear(in_features=768, out_features=768, bias=True)
        (activation): Tanh()
      )
    )
    (common_vocab): PretrainedVocab(
      (model): RobertaModel(
        (embeddings): RobertaEmbeddings(
          (word_embeddings): Embedding(64001, 768, padding_idx=1)
          (position_embeddings): Embedding(258, 768, padding_idx=1)
          (token_type_embeddings): Embedding(1, 768)
          (LayerNorm): LayerNorm((768,), eps=1e-05, elementwise_affine=True)
          (dropout): Dropout(p=0.1, inplace=False)
        )
        (encoder): RobertaEncoder(
          (layer): ModuleList(
            (0-11): 12 x RobertaLayer(
              (attention): RobertaAttention(
                (self): RobertaSdpaSelfAttention(
                  (query): Linear(in_features=768, out_features=768, bias=True)
                  (key): Linear(in_features=768, out_features=768, bias=True)
                  (value): Linear(in_features=768, out_features=768, bias=True)
                  (dropout): Dropout(p=0.1, inplace=False)
                )
                (output): RobertaSelfOutput(
                  (dense): Linear(in_features=768, out_features=768, bias=True)
                  (LayerNorm): LayerNorm((768,), eps=1e-05, elementwise_affine=True)
                  (dropout): Dropout(p=0.1, inplace=False)
                )
              )
              (intermediate): RobertaIntermediate(
                (dense): Linear(in_features=768, out_features=3072, bias=True)
                (intermediate_act_fn): GELUActivation()
              )
              (output): RobertaOutput(
                (dense): Linear(in_features=3072, out_features=768, bias=True)
                (LayerNorm): LayerNorm((768,), eps=1e-05, elementwise_affine=True)
                (dropout): Dropout(p=0.1, inplace=False)
              )
            )
          )
        )
        (pooler): RobertaPooler(
          (dense): Linear(in_features=768, out_features=768, bias=True)
          (activation): Tanh()
        )
      )
      (vectors): Embedding(5948, 768)
    )
  )
  (decoder): Decoder(
    (lstm_cell): LSTMCell(2304, 768)
    (attention): LSTMAttention(
      (activation): Tanh()
      (softmax): Softmax(dim=None)
      (w): Linear(in_features=768, out_features=1, bias=True)
      (hidden_state_linear): Linear(in_features=768, out_features=768, bias=True)
      (input_linear): Linear(in_features=768, out_features=768, bias=True)
    )
  )
  (classifier): Linear(in_features=768, out_features=5948, bias=True)
  (ptr_net): OcrPtrNet(
    (linear_hidden_state): Linear(in_features=768, out_features=768, bias=True)
    (linear_augmented_feat): Linear(in_features=1536, out_features=768, bias=True)
  )
)
2025-08-13 00:22 - INFO - Starting training...
2025-08-13 00:22 - INFO - Training epoch: 1
Iterating through train loader: 0it [00:00, ?it/s]2025-08-13 00:22 - INFO - Training batch: 1
/data2/npl/ViInfographicCaps/workspace/baseline/LSTMR/project/modules/multimodal_embedding.py:216: UserWarning: Creating a tensor from a list of numpy.ndarrays is extremely slow. Please consider converting the list to a single numpy.ndarray with numpy.array() before converting to a tensor. (Triggered internally at /pytorch/torch/csrc/utils/tensor_new.cpp:254.)
…
